…
1575/1575 [==============================] - 1101s 699ms/step - loss: 0.2638 - val_loss: 0.2656

Epoch 00010: val_loss did not improve from 0.26533
Runtime of "TrainModel" took 11024.78 seconds
Model: "AE_v2_F128.64.32.4_K3.3_P2.2_Dbn-None"
_________________________________________________________________
Layer (type)                 Output Shape              Param #   
=================================================================
input_2 (InputLayer)         [(None, 96, 96, 3)]       0         
_________________________________________________________________
conv2d (Conv2D)              (None, 96, 96, 128)       3584      
_________________________________________________________________
max_pooling2d (MaxPooling2D) (None, 48, 48, 128)       0         
_________________________________________________________________
conv2d_1 (Conv2D)            (None, 48, 48, 64)        73792     
_________________________________________________________________
max_pooling2d_1 (MaxPooling2 (None, 24, 24, 64)        0         
_________________________________________________________________
conv2d_2 (Conv2D)            (None, 24, 24, 32)        18464     
_________________________________________________________________
max_pooling2d_2 (MaxPooling2 (None, 12, 12, 32)        0         
_________________________________________________________________
conv2d_3 (Conv2D)            (None, 12, 12, 4)         1156      
_________________________________________________________________
max_pooling2d_3 (MaxPooling2 (None, 6, 6, 4)           0         
_________________________________________________________________
conv2d_4 (Conv2D)            (None, 6, 6, 4)           148       
_________________________________________________________________
up_sampling2d (UpSampling2D) (None, 12, 12, 4)         0         
_________________________________________________________________
conv2d_5 (Conv2D)            (None, 12, 12, 32)        1184      
_________________________________________________________________
up_sampling2d_1 (UpSampling2 (None, 24, 24, 32)        0         
_________________________________________________________________
conv2d_6 (Conv2D)            (None, 24, 24, 64)        18496     
_________________________________________________________________
up_sampling2d_2 (UpSampling2 (None, 48, 48, 64)        0         
_________________________________________________________________
conv2d_7 (Conv2D)            (None, 48, 48, 128)       73856     
_________________________________________________________________
up_sampling2d_3 (UpSampling2 (None, 96, 96, 128)       0         
_________________________________________________________________
conv2d_8 (Conv2D)            (None, 96, 96, 3)         3459      
=================================================================
Total params: 194,139
Trainable params: 194,139
Non-trainable params: 0
_________________________________________________________________
Found 8000 images belonging to 1 classes.
Found 8000 images belonging to 1 classes.