…
Epoch 00010: val_loss improved from 0.24043 to 0.24012, saving model to ./models\AE_v2_F128.64.32.8_K3.3_P2.2_Dbn-None_W_E10_L-perceptual_loss_D22-03-2021_10-28-31.hdf5
Runtime of "TrainModel" took 10511.40 seconds
Model: "AE_v2_F128.64.32.8_K3.3_P2.2_Dbn-None"
_________________________________________________________________
Layer (type)                 Output Shape              Param #   
=================================================================
input_2 (InputLayer)         [(None, 96, 96, 3)]       0         
_________________________________________________________________
conv2d (Conv2D)              (None, 96, 96, 128)       3584      
_________________________________________________________________
max_pooling2d (MaxPooling2D) (None, 48, 48, 128)       0         
_________________________________________________________________
conv2d_1 (Conv2D)            (None, 48, 48, 64)        73792     
_________________________________________________________________
max_pooling2d_1 (MaxPooling2 (None, 24, 24, 64)        0         
_________________________________________________________________
conv2d_2 (Conv2D)            (None, 24, 24, 32)        18464     
_________________________________________________________________
max_pooling2d_2 (MaxPooling2 (None, 12, 12, 32)        0         
_________________________________________________________________
conv2d_3 (Conv2D)            (None, 12, 12, 8)         2312      
_________________________________________________________________
max_pooling2d_3 (MaxPooling2 (None, 6, 6, 8)           0         
_________________________________________________________________
conv2d_4 (Conv2D)            (None, 6, 6, 8)           584       
_________________________________________________________________
up_sampling2d (UpSampling2D) (None, 12, 12, 8)         0         
_________________________________________________________________
conv2d_5 (Conv2D)            (None, 12, 12, 32)        2336      
_________________________________________________________________
up_sampling2d_1 (UpSampling2 (None, 24, 24, 32)        0         
_________________________________________________________________
conv2d_6 (Conv2D)            (None, 24, 24, 64)        18496     
_________________________________________________________________
up_sampling2d_2 (UpSampling2 (None, 48, 48, 64)        0         
_________________________________________________________________
conv2d_7 (Conv2D)            (None, 48, 48, 128)       73856     
_________________________________________________________________
up_sampling2d_3 (UpSampling2 (None, 96, 96, 128)       0         
_________________________________________________________________
conv2d_8 (Conv2D)            (None, 96, 96, 3)         3459      
=================================================================
Total params: 196,883
Trainable params: 196,883
Non-trainable params: 0
_________________________________________________________________
Found 8000 images belonging to 1 classes.
Found 8000 images belonging to 1 classes.